models/cnn_model.pth (torch, 48937 bytes, 7 tensors)

conv1.weight f4 [64, 1, 3]
0.43712467 0.49132925 -0.14035185 0.50953066 -0.13527945 0.13298324 -0.2916479 0.35367814
0.58176833 -0.29847416 0.60739243 0.209082 0.40311313 0.08678962 0.34765127 -0.076032095
0.49919328 0.1391773 -0.4072886 -0.0053902688 -0.29270646 -0.06595359 -0.20413418 0.45346838
-0.45574307 -0.26616445 -0.16302913 -0.3471448 0.05449212 -0.5702368 0.5145514 -0.4842738
0.46797112 0.10073504 -0.16763094 0.39952004 0.09161828 0.5110083 0.10100318 -0.18208079
0.15512459 -0.15656552 0.32384354 0.60110396 0.3930211 -0.25240168 0.3332839 0.103303105
0.29319867 -0.3518979 -0.5715239 -0.23074944 -0.43745708 0.4917709 0.16314378 0.24567948
0.21070907 0.004450725 0.49334797 -0.39745006 0.036352124 -0.39406475 0.17802711 -0.1988292
0.17690952 -0.12028601 0.4788496 -0.3421966 -0.34433055 -0.33791497 0.5370081 0.23848985
0.6054401 -0.44699377 -0.569844 -0.45169792 -0.38837722 0.23385003 0.19397399 0.49205062
-0.2998342 -0.3935865 0.30632943 -0.23336756 0.35040763 -0.13700558 0.33027086 -0.5452947
-0.44660228 -0.039133236 0.1220562 -0.1472005 0.34414086 0.39248803 -0.41867903 -0.30822894
0.5286577 -0.19481674 -0.20468013 -0.5568305 -0.32778022 0.15245153 -0.08874988 -0.43659705
-0.0007046862 -0.40480745 -0.55735856 -0.37457407 -0.5053039 -0.3676209 0.5771244 0.10904701
0.1779161 -0.5384855 -0.37918854 -0.19217439 0.090280905 -0.5160865 -0.25701663 -0.34486377
-0.012221956 -0.21863389 -0.04100233 -0.4460412 -0.48288798 -0.39962292 -0.20824207 -0.46057868
0.495205 -0.12632127 0.5045577 0.23591009 -0.3522187 0.5578171 -0.21563634 -0.2213134
-0.4792414 -0.5739789 0.16518605 -0.12611863 0.2247758 -0.47381026 0.42864165 -0.4238061
-0.10442183 0.1403747 0.35731518 0.6078508 0.73881775 -0.43216476 0.14530016 -0.24833333
-0.06326882 -0.43214095 0.52588445 -0.4237465 0.31439292 0.23484601 0.27889144 -0.31214222
0.5247834 0.12687296 0.07427037 -0.5087927 0.24236499 -0.097151116 -0.26653293 0.51759374
0.12871954 -0.3194343 -0.29221943 -0.073872134 0.27142215 -0.18274276 -0.32942155 -0.19770949
-0.43132386 0.20590185 0.44689232 -0.54354084 0.14445509 0.34267765 0.21784516 -0.20560865
0.30134344 0.30340517 0.21588698 -0.1014528 -0.15288308 0.061765462 -0.10199129 -0.17205098
00000000: cece df3e 828f fb3e 65b8 0fbe 9a70 023f
00000010: b286 0abe c22c 083e e052 95be 4d15 b53e
00000020: c5ee 143f 9bd1 98be 127e 1b3f 9819 563e
00000030: d864 ce3e c2be b13d 59ff b13e b7b6 9bbd
00000040: 4396 ff3e 7e84 0e3e 2288 d0be daa0 b0bb
00000050: 9fdd 95be ad12 87bd 8d08 51be 022d e83e
00000060: 2857 e9be b546 88be 1cf1 26be f7bc b1be
00000070: 2133 5f3d 0afb 11bf a4b9 033f bcf2 f7be
00000080: e999 ef3e 2c4e ce3d 72a7 2bbe e48d cc3e
00000090: 5da2 bb3d 71d1 023f c1da ce3d 6373 3abe
000000a0: fbd8 1e3e b652 20be d2ce a53e f3e1 193f
000000b0: 103a c93e cb3a 81be 30a4 aa3e 9490 d33d
000000c0: 231e 963e f62b b4be 644f 12bf 9549 6cbe
000000d0: 60fa dfbe 65c9 fb3e 2a0f 273e 6793 7b3e
000000e0: 1ec4 573e 63d7 913b 1b98 fc3e 937e cbbe
000000f0: f7e5 143d dbc2 c9be bd4c 363e e299 4bbe
00000100: c527 353e 8358 f6bd c62b f53e 6534 afbe
00000110: 184c b0be 3103 adbe 5d79 093f af36 743e
00000120: 1ffe 1a3f 5edc e4be 4ce1 11bf f344 e7be
00000130: 61d9 c6be 6276 6f3e 1ea1 463e 0fee fb3e
00000140: de83 99be 2b84 c9be 36d7 9c3e e8f7 6ebe
00000150: a168 b33e 314b 0cbe 4319 a93e 6f98 0bbf
00000160: 0ea9 e4be 2c4a 20bd 9af8 f93d babb 16be
00000170: 3b33 b03e 31f4 c83e 195d d6be 2fd0 9dbe
00000180: 1c56 073f 0a7e 47be ab97 51be 728c 0ebf
00000190: cfd2 a7be 411c 1c3e 7fc2 b5bd a689 dfbe
000001a0: b1ba 38ba ec42 cfbe 0daf 0ebf 2cc8 bfbe
000001b0: 995b 01bf ce38 bcbe 6dbe 133f 0a54 df3d
000001c0: a32f 363e 30da 09bf 0025 c2be 5dc9 44be
000001d0: 32e5 b83d 3f1e 04bf af97 83be fc91 b0be
000001e0: 993e 48bc 90e1 5fbe 0ff2 27bd 835f e4be
000001f0: 183d f7be 609b ccbe 693d 55be f8d0 ebbe
00000200: 828b fd3e 5d5a 01be b22a 013f 6a92 713e
00000210: 0256 b4be 1acd 0e3f c6cf 5cbe fb9f 62be
00000220: 215f f5be 48f0 12bf 8826 293e 3e25 01be
00000230: a12b 663e 4297 f2be eb76 db3e 1dfd d8be
00000240: 1ddb d5bd 63be 0f3e 04f2 b63e 1c9c 1b3f
00000250: 2923 3d3f b344 ddbe 91c9 143e 184b 7ebe
00000260: 1593 81bd 9441 ddbe 5da0 063f 4df5 d8be
00000270: 1cf8 a03e 797b 703e dcca 8e3e 1bd1 9fbe
00000280: 3458 063f fcea 013e 101b 983d 3d40 02bf
00000290: 872e 783e 2af7 c6bd 0177 88be 0681 043f
000002a0: 0ecf 033e e48c a3be c99d 95be 464a 97bd
000002b0: d8f7 8a3e eb20 3bbe f1a9 a8be 5b74 4abe
000002c0: 7bd6 dcbe efd7 523e 12cf e43e 7e25 0bbf
000002d0: 09ec 133e 7273 af3e cd12 5f3e 138b 52be
000002e0: b049 9a3e ec57 9b3e 7a11 5d3e 7cc6 cfbd
000002f0: 628d 1cbe c8fd 7c3d cfe0 d0bd 222e 30be

conv1.bias f4 [64]
0.35431203 0.46064234 -0.041730482 -0.14493144 -0.028415235 -0.032007955 0.10866223 0.1351713
-0.5243823 -0.21306404 0.46929738 0.21193118 -0.036378436 -0.3480878 -0.33113945 -0.5171712
-0.18819448 0.17221169 0.356813 0.24949218 -0.51034534 -0.3471968 -0.09111548 0.5395051
0.1076329 -0.14951682 0.21281752 -0.21990205 -0.37369323 0.34241548 -0.2625222 -0.11573953
-0.5743505 0.37007603 0.41086334 0.22151391 -0.40257144 -0.56981003 -0.46891174 0.41888475
0.25283283 0.4272991 0.27985355 0.11050342 -0.008719209 -0.43907836 -0.49465764 -0.54002374
0.20954655 -0.11762114 -0.11619323 -0.33226812 -0.064343944 -0.40635926 -0.37724972 0.16363835
-0.17158641 0.31497443 -0.18521902 -0.42352524 -0.050810553 -0.27986905 -0.17663544 -0.54963493
00000000: 6368 b53e 50d9 eb3e 95ed 2abd e868 14be
00000010: 11c7 e8bc c61a 03bd 4e8a de3d 586a 0a3e
00000020: eb3d 06bf 762d 5abe bf47 f03e 7d04 593e
00000030: 8e01 15bd 9038 b2be 1c8b a9be 5565 04bf
00000040: 0eb6 40be 4358 303e 32b0 b63e e17a 7f3e
00000050: fea5 02bf c7c3 b1be c19a babd 021d 0a3f
00000060: a36e dc3d f01a 19be d6ec 593e 012e 61be
00000070: b854 bfbe 1551 af3e 4f69 86be d908 edbd
00000080: a208 13bf 9b7a bd3e ae5c d23e 8bd4 623e
00000090: d81d cebe 12df 11bf 3315 f0be 1078 d63e
000000a0: 4e73 813e f3c6 da3e f748 8f3e 9e4f e23d
000000b0: 03db 0ebc e1ce e0be c443 fdbe ff3e 0abf
000000c0: 5f93 563e 5ae3 f0bd b7f6 edbd 0c1f aabe
000000d0: c2c6 83bd 520e d0be e026 c1be d090 273e
000000e0: 59b4 2fbe 5444 a13e 0eaa 3dbe 4dd8 d8be
000000f0: ba1e 50bd ff4a 8fbe ecdf 34be e0b4 0cbf

conv2.weight f4 [32, 64, 3]
0.046124693 -0.040420614 0.05701441 0.040508527 0.058975767 -0.035014268 0.07158341 0.016029492
0.12371419 -0.03440839 -0.13608336 -0.021654883 -0.0060344967 -0.03932509 0.06709629 -0.056766804
0.08518483 0.11255032 0.077477485 -0.017703945 -0.05708818 0.02720387 0.05026935 -0.047245193
-0.016381135 -0.04326197 -0.0063121514 -0.03552245 -0.02950026 -0.02291062 -0.05723579 0.06565493
0.067847334 -0.00971149 0.0027606757 -0.017420087 -0.05300476 -0.045363527 0.07766844 -0.039623994
-0.04639565 -0.005630839 -0.1511854 -0.16471983 -0.08015577 -0.015307896 -0.024848608 -0.03455484
-0.05873293 0.06051404 -0.028881019 0.029509908 -0.009024464 0.024878323 0.07094647 0.03666712
-0.06012954 0.036617592 0.079160556 0.038013525 0.048383735 0.0711503 -0.01105835 0.014978953
-0.050159838 -0.014872333 0.05344703 0.036997028 -0.04566761 -0.04895364 -0.040416885 -0.061198257
-0.09522315 -0.0424329 0.015320053 0.012079773 -0.05489197 -0.057895523 0.03437915 -0.053168427
0.0021828641 0.0346198 -0.033400584 -0.007869277 -0.006281894 -0.017073933 -0.036591895 -0.047005545
-0.04920995 -0.02776798 0.06970333 -0.034858584 -0.048463356 0.017493295 0.019890461 0.03954198
0.054856963 0.04018893 -0.07155542 0.02124161 0.04870619 0.0053692097 -0.03292091 0.07360206
-0.022182658 -0.052553263 -0.099589616 -0.049641505 0.031980377 0.015975486 0.014271357 -0.054731898
-0.067397505 0.0012708459 0.06580596 0.04163571 -0.042019136 -0.005551474 -0.05273638 -0.028754449
0.015857136 0.044371486 0.060347896 -0.046888005 0.050253414 -0.03299393 0.037413254 0.07303629
0.009377856 0.072560824 -0.05165286 -0.0063016 0.056481186 0.049385667 0.19504674 -0.030079348
0.049746383 0.03539902 0.02312649 -0.040556233 -0.05858298 0.00780582 0.021382082 -0.033321183
-0.014383344 0.061337214 0.02308734 -0.16283642 0.012463487 0.031203574 -0.067857236 -0.034497764
-0.036684938 0.022484444 -0.021009108 -0.028234024 0.052303668 0.06434061 0.10721506 -0.03493783
-0.029478552 0.026524948 -0.048084266 -0.047177024 -0.0034857283 -0.017342245 -0.041840922 0.06380078
0.058035456 0.0117074605 -0.012565543 -0.054466262 -0.009137593 0.03248699 0.03402981 -0.009123398
-0.028532133 0.040214326 -0.057475198 0.045611966 -0.04246121 0.035470072 0.04236395 0.008749668
-0.021809291 0.052475866 -0.0018761836 0.056334913 0.069388874 -0.03515998 -0.052647784 0.05790116
0.046206184 -0.065122806 -0.0028616772 -0.0772304 -0.06522921 0.0101404255 0.01830318 0.013680336
-0.02116137 0.06900629 0.0154739255 -0.0425857 -0.013730467 0.013430549 0.022375043 -0.052140612
0.023422984 -0.034764986 -0.06916866 -0.038408607 0.06468189 0.05110127 0.061571427 0.041170333
0.054519873 -0.009659773 -0.039709277 0.036059607 -0.037396617 -0.048704248 -0.034407046 0.013244197
0.030141389 -0.038221624 -0.05130313 0.0061443187 -0.052449852 -0.050651338 0.03401873 -0.012123245
0.06594675 0.07020453 0.011528825 0.019570667 0.0107942335 0.0011302268 -0.0052490123 0.0009918961
0.02694961 0.06710043 -0.018703196 -0.040795043 -0.023077652 -0.034991525 0.00237397 0.050217837
0.05318935 0.02188528 -0.046888757 -0.04511131 -0.015856305 -0.013302449 0.005935719 -0.06624889
00000000: 3fed 3c3d 1690 25bd f187 693d 45ec 253d
00000010: 9390 713d 1f6b 0fbd 539a 923d 4850 833c
00000020: de5d fd3d d0ef 0cbd 7059 0bbe 9565 b1bc
00000030: 07bd c5bb 5813 21bd c869 893d 4f84 68bd
00000040: 6275 ae3d c880 e63d 84ac 9e3d dd07 91bc
00000050: 4cd5 69bd a6da de3c 3ce7 4d3d 2d84 41bd
00000060: bb31 86bc 7733 31bd 2ad6 cebb fd7f 11bd
00000070: 87aa f1bc 0daf bbbc 1370 6abd 1876 863d
00000080: 8bf3 8a3d f11c 1fbc 74ec 343b 92b4 8ebc
00000090: 851b 59bd 1bcf 39bd a210 9f3d c54c 22bd
000000a0: 5d09 3ebd e782 b8bb 58d0 1abe 51ac 28be
000000b0: b528 a4bd f8cd 7abc 4f8f cbbc 6089 0dbd
000000c0: f191 70bd 92dd 773d e397 ecbc c3be f13c
000000d0: 58db 13bc a0cd cb3c 624c 913d 4330 163d
000000e0: 644a 76bd 54fc 153d ee1e a23d 12b4 1b3d
000000f0: 062e 463d 40b7 913d 152e 35bc 486a 753c
00000100: 6774 4dbd 16ab 73bc 46eb 5a3d 328a 173d
00000110: f60d 3bbd 9d83 48bd 2d8c 25bd 06ab 7abd
00000120: 5b04 c3bd 1fce 2dbd f600 7b3c 3dea 453c
00000130: 67d6 60bd db23 6dbd 27d1 0c3d 23c7 59bd
00000140: 620e 0f3b 7ecd 0d3d 0dcf 08bd 24ee 00bc
00000150: 59d8 cdbb a2de 8bbc 62e1 15bd e388 40bd
00000160: 5f90 49bd ad79 e3bc 9fc0 8e3d e0c7 0ebd
00000170: 8381 46bd 194e 8f3c 52f1 a23c c5f6 213d
00000180: b2b1 603d 269d 243d a68b 92bd e302 ae3c
00000190: 2480 473d 32f0 af3b 13d8 06bd adbc 963d
000001a0: 68b8 b5bc 1742 57bd a4f5 cbbd e454 4bbd
000001b0: dbfd 023d 06df 823c 69d2 693c 8e2e 60bd
000001c0: b407 8abd 8392 a63a 46c5 863d 358a 2a3d
000001d0: 421c 2cbd 24e9 b5bb 1a02 58bd 738e ebbc
000001e0: d3e6 813c e0be 353d 5b2f 773d a30d 40bd
000001f0: 86d6 4d3d a524 07bd a43e 193d 0d94 953d
00000200: 94a5 193c c59a 943d f391 53bd a77d cebb
00000210: d158 673d a048 4a3d 55ba 473e f768 f6bc
00000220: ddc2 4b3d 90fe 103d c473 bd3c 4b1e 26bd
00000230: b5f4 6fbd f7c7 ff3b 7a29 af3c cb7b 08bd
00000240: 1ea8 6bbc bb3c 7b3d a921 bd3c 97be 26be
00000250: a733 4c3c a39e ff3c bcf8 8abd 874d 0dbd
00000260: f242 16bd 4c31 b83c 4b1b acbc 0a4b e7bc
00000270: 5f3c 563d 02c5 833d 9293 db3d f81a 0fbd
00000280: 017d f1bc d94a d93c 02f4 44bd b23c 41bd
00000290: d170 64bb 5311 8ebc 6361 2bbd fca9 823d
000002a0: 96b6 6d3d a6d0 3f3c b5df 4dbc 0418 5fbd
000002b0: d8b5 15bc 1411 053d d862 0b3d 4e7a 15bc
000002c0: 38bc e9bc c7b7 243d 1d6b 6bbd 9dd3 3a3d
000002d0: ceeb 2dbd 1149 113d d285 2d3d c45a 0f3c
000002e0: 66a9 b2bc eff0 563d 46ea f5ba 70bf 663d
000002f0: c11b 8e3d e903 10bd 34a5 57bd c429 6d3d
00000300: b242 3d3d 1b5f 85bd fa8a 3bbb f92a 9ebd
00000310: e496 85bd 0724 263c 8df0 953c 7d23 603c
00000320: 9c5a adbc 2b53 8d3d 5986 7d3c 586e 2ebd
00000330: c1f5 60bc ce0b 5c3c de4b b73c 6591 55bd
00000340: 8fe1 bf3c bb65 0ebd 4ca8 8dbd 5852 1dbd
00000350: f077 843d 914f 513d 5232 7c3d 39a2 283d
00000360: 3b50 5f3d 0644 1ebc 32a6 22bd 3db3 133d
00000370: 322d 19bd 1b7e 47bd 67ee 0cbd 30fe 583c
00000380: 13eb f63c 478e 1cbd 3b23 52bd 4856 c93b
00000390: a8d5 56bd c777 4fbd 3957 0b3d 93a0 46bc
000003a0: 170f 873d 65c7 8f3d 66e3 3c3c aa52 a03c
000003b0: 4cda 303c 1e24 943a e8ff abbb 8302 823a
000003c0: 6ec5 dc3c f36b 893d 7237 99bc b418 27bd
000003d0: 580d bdbc 4653 0fbd 9c94 1b3b 38b1 4d3d
000003e0: 13dd 593d c248 b33c 6d0e 40bd a3c6 38bd
000003f0: 15e5 81bc 84f2 59bc 6b80 c23b 7fad 87bd

conv2.bias f4 [32]
0.033863544 -0.047728527 0.042439148 -0.019968305 0.008653799 -0.0061197532 0.055830013 -0.009228844
-0.022662746 -0.023726447 0.0011473586 -0.029208526 0.03422602 -0.034898147 0.020159895 -0.051478155
-0.0051437984 -0.0068902792 -0.033806965 0.041621752 -0.07426505 0.011400494 0.0016609592 -0.037420038
0.04938561 0.032585762 0.022726888 0.005077471 0.03442479 -0.051096555 -0.06214025 0.07317541
00000000: 80b4 0a3d fd7e 43bd acd4 2d3d 9294 a3bc
00000010: aac8 0d3c 3688 c8bb 03ae 643d 9434 17bc
00000020: 39a7 b9bc f75d c2bc f762 963a b846 efbc
00000030: 9530 0c3d 5cf1 0ebd 5d26 a53c c2da 52bd
00000040: 4f8d a8bb dac7 e1bb 2c79 0abd 927b 2a3d
00000050: 4618 98bd 23c9 3a3c 8bb4 d93a c145 19bd
00000060: 9148 4a3d a678 053d bd2d ba3c ea60 a63b
00000070: 0201 0d3d 9f4a 51bd c686 7ebd fddc 953d

fc1.weight f4 [50, 96]
-0.05907098 0.0012142083 0.008584849 0.087708674 0.10478285 -0.061705735 0.0064599747 -0.08865315
0.07172941 0.09021304 -0.042627357 0.047428716 -0.014700151 -0.016216531 0.09213863 -0.084754676
-0.005061416 0.011967951 -0.08968692 0.04684693 0.093291946 -0.09538822 0.030831149 0.010275153
0.08259938 -0.09592385 0.08830317 -0.03297213 0.09056449 -0.047313 -0.007122885 0.010466609
0.06386669 0.035224617 0.06460347 0.00029262147 -0.06948888 0.012132559 0.10365066 0.0805445
-0.05202574 0.076811545 0.044701517 -0.026856853 0.056125022 -0.002950543 0.0044408306 -0.049662236
-0.02275835 0.09016258 0.07961934 -0.09874257 -0.015395439 0.068669006 -0.047987033 0.0018044383
0.06534869 0.08219262 0.08134636 -0.063994326 -0.088636525 0.08163888 0.0012598304 0.09188231
0.078129984 -0.03338176 0.034659635 0.022577895 -0.050182927 0.093113676 0.008652224 0.00015173704
-0.08040803 0.09082109 -0.076350965 0.090459496 -0.02186258 -0.0050429185 0.014124252 0.096134
-0.05826547 -0.08025423 0.062283978 -0.045510672 -0.032332208 0.062629364 -0.029575143 0.06246052
-0.0035236392 0.086563945 0.118602924 0.019220483 -0.038364187 0.053803638 0.033691574 0.020271096
0.10091529 -0.00535727 0.06729627 -0.025017343 -0.015677227 -0.0020159371 0.029669214 0.054003358
0.103818566 0.06297309 -0.02289793 0.14813544 0.07982787 0.054847647 0.024448806 -0.046544906
-0.04896208 0.018265435 -0.081109 0.044844165 -0.03953142 -0.081477985 -0.030897753 0.095291235
0.08809758 -0.06490285 -0.041353002 0.027146475 -0.013486662 -0.07912457 0.013584564 -0.09541949
0.018931549 0.045640744 0.12488368 -0.044059936 0.08699203 0.026070373 0.101393744 0.1174041
0.0044784555 0.02077286 0.00027772388 0.09434026 -0.014426219 0.08519867 0.051242877 0.13217197
0.083049186 0.08939176 -0.043661807 -0.038843777 -0.050064232 0.08785843 0.02690292 0.07172975
0.0751927 0.026232515 0.045486614 -0.025616689 0.07432341 -0.078267016 -0.08280633 0.04876893
0.11992395 -0.016130183 0.11886029 -0.03452207 -0.07979499 0.0074147983 0.08071546 0.009728232
0.114656486 -0.033363536 -0.008921738 -0.025852185 -0.062341694 0.110546745 -0.039089475 -0.034629595
-0.0061366847 0.09687404 0.06730517 0.053224515 -0.0046536834 0.06996265 0.050438855 0.08926675
0.058600094 0.08626239 0.08678181 0.022915 -0.10237312 0.03490384 -0.04939372 0.060595274
-0.018718144 0.07612066 -0.050166875 -0.08458675 0.044634506 0.075231485 -0.005357695 0.031315546
0.10214058 0.013649386 -0.021304674 0.097987875 0.107521184 -0.00035787787 0.07879803 0.013804447
-0.00863156 0.0041131414 -0.09797884 0.05726151 -0.01978063 -0.083606 -0.010100618 -0.015864315
-0.06653991 -0.0071711866 0.0023340555 0.03580773 0.019374497 -0.0093011195 -0.006619042 -0.08825918
0.06212953 0.047805086 0.0844219 -0.0600617 0.08096315 0.029664291 -0.08619366 0.10291694
0.016987402 0.04318372 0.095241375 0.070045374 0.10576696 -0.07769903 0.10315414 0.05350732
0.0057192803 -0.07957242 -0.024569537 0.101093836 0.07873097 0.10393986 -0.0063632964 -0.030555226
0.049303737 -0.037159845 -0.0637956 0.05523514 0.08874349 -0.06829802 -0.079485446 0.025740195
00000000: 69f4 71bd 1226 9f3a 77a7 0c3c 9ba0 b33d
00000010: 6498 d63d 27bf 7cbd 32ae d33b c88f b5bd
00000020: dee6 923d 9dc1 b83d 069a 2ebd 9d44 423d
00000030: e7d8 70bc 88d8 84bc 2eb3 bc3d dc93 adbd
00000040: 3cda a5bb 3a15 443c c7ad b7bd 91e2 3f3d
00000050: d90f bf3d e65a c3bd 9b91 fc3c 1e59 283c
00000060: dd29 a93d b973 c4bd 4bd8 b43d c90d 07bd
00000070: e079 b93d 47cb 41bd 1767 e9bb 247c 2b3c
00000080: 8acc 823d b047 103d d34e 843d fd6a 9939
00000090: 3050 8ebd a4c7 463c cc46 d43d 84f4 a43d
000000a0: f118 55bd 5f4f 9d3d f018 373d e702 dcbc
000000b0: 5ae3 653d e65d 41bb 6384 913b a16a 4bbd
000000c0: b86f babc 29a7 b83d 770f a33d 8b39 cabd
000000d0: 273d 7cbc 56a2 8c3d 0d8e 44bd e782 ec3a
000000e0: 89d5 853d 9b54 a83d ec98 a63d 750f 83bd
000000f0: 1187 b5bd 4932 a73d e520 a53a cb2c bc3d
00000100: 9d02 a03d 50bb 08bd 43f7 0d3d 47f5 b83c
00000110: 9d8c 4dbd 62b2 be3d 0fc2 0d3c 9a1b 1f39
00000120: f7ac a4bd 6800 ba3d e55d 9cbd d442 b93d
00000130: 2719 b3bc 113f a5bb 6869 673c e7e1 c43d
00000140: c6a7 6ebd 545c a4bd 7c1d 7f3d 6669 3abd
00000150: c76e 04bd d343 803d 9247 f2bc 9ad6 7f3d
00000160: dbec 66bb 7048 b13d 17e6 f23d 4674 9d3c
00000170: c423 1dbd 3461 5c3d 2d00 0a3d 920f a63c
00000180: adac ce3d 0a8c afbb a0d2 893d 2cf1 ccbc
00000190: 876d 80bc d01d 04bb da0c f33c a032 5d3d
000001a0: d49e d43d 09f8 803d 7194 bbbc d1b0 173e
000001b0: cb7c a33d eda7 603d dd48 c83c dfa5 3ebd
000001c0: 768c 48bd 65a1 953c 7a1c a6bd 84ae 373d
000001d0: b3eb 21bd eedd a6bd 491d fdbc 0d28 c33d
000001e0: 816c b43d c9eb 84bd c461 29bd 4962 de3c
000001f0: 29f7 5cbc 100c a2bd cb91 5e3c 4b6b c3bd
00000200: 5616 9b3c caf1 3a3d 04c3 ff3d 3178 34bd
00000210: e128 b23d 8991 d53c 86a7 cf3d 9071 f03d
00000220: 02c0 923b d82b aa3c 789b 9139 7735 c13d
00000230: f35b 6cbc a47c ae3d 0de4 513d 1758 073e
00000240: b115 aa3d 0713 b73d b9d6 32bd a71a 1fbd
00000250: 2710 4dbd 1fef b33d 8363 dc3c 0ce7 923d
00000260: a1fe 993d 92e5 d63c 2c50 3a3d 17da d1bc
00000270: df36 983d 754a a0bd 5d96 a9bd eec1 473d
00000280: b09a f53d 7223 84bc 066d f33d 0467 0dbd
00000290: 8e6b a3bd d6f7 f23b 264e a53d 2a63 1f3c
000002a0: 05d1 ea3d 34a8 08bd 7b2c 12bc f6c7 d3bc
000002b0: 015a 7fbd 5566 e23d 491c 20bd c3d7 0dbd
000002c0: 3e16 c9bb e665 c63d 4bd7 893d f301 5a3d
000002d0: ed7d 98bb 9448 8f3d f998 4e3d 7cd1 b63d
000002e0: a706 703d 56aa b03d a9ba b13d 3db8 bb3c
000002f0: 00a9 d1bd 54f7 0e3d 1251 4abd c032 783d
00000300: cb56 99bc 26e5 9b3d c87b 4dbd d13b adbd
00000310: acd2 363d f712 9a3d 9a8f afbb bb44 003d
00000320: 152f d13d ada1 5f3c 2487 aebc dead c83d
00000330: 1134 dc3d 8ea1 bbb9 dd60 a13d 0c2c 623c
00000340: 636b 0dbc 88c7 863b 21a9 c8bd 0c8b 6a3d
00000350: fd0a a2bc 9f39 abbd 107d 25bc e1f5 81bc
00000360: 1446 88bd 46fc eabb f4f6 183b 20ab 123d
00000370: 44b7 9e3c b963 18bc 8ce4 d8bb 3bc1 b4bd
00000380: 897b 7e3d 44cf 433d 64e5 ac3d 4203 76bd
00000390: 02d0 a53d 8702 f33c 4d86 b0bd 1ec6 d23d
000003a0: 2a29 8b3c 6ae1 303d e90d c33d f373 8f3d
000003b0: 599c d83d ab20 9fbd 7a42 d33d 7e2a 5b3d
000003c0: cd68 bb3b ddf6 a2bd 0e46 c9bc 490a cf3d
000003d0: b43d a13d 6cde d43d 3383 d0bb f44e fabc
000003e0: b7f2 493d ec34 18bd 44a7 82bd 3e3e 623d
000003f0: 26bf b53d d5df 8bbd 44c9 a2bd 1add d23c

fc1.bias f4 [50]
0.026438104 -0.03752275 -0.018403955 0.0070449985 0.14794609 0.11291002 -0.0012308098 0.04537857
-0.09897034 -0.09612573 -0.02533053 0.05482822 -0.104898036 -0.03161572 0.0023469215 0.036086477
0.0059605115 0.007523568 0.11204086 -0.052546475 -0.0434825 0.081302166 0.0550685 0.13995457
0.066083565 -0.07948589 -0.036607247 -0.026430365 0.01680409 0.046158552 -0.09326782 -0.06541291
0.0674778 0.054542493 -0.068057515 0.021587543 -0.022546181 0.02635731 0.0013562111 0.06978558
-0.017434422 -0.017023202 -0.08089013 0.07806561 -0.025831925 0.07421797 -0.005357558 -0.07927846
0.016479595 0.06942357
00000000: b994 d83c 75b1 19bd e4c3 96bc bbd9 e63b
00000010: 2e7f 173e 5e3d e73d 2053 a1ba e1de 393d
00000020: f6b0 cabd 91dd c4bd f981 cfbc 8e93 603d
00000030: c8d4 d6bd 7c7f 01bd cfce 193b 6acf 133d
00000040: 6550 c33b 4388 f63b ae75 e53d f93a 57bd
00000050: b51a 32bd c081 a63d 828f 613d 4050 0f3e
00000060: d256 873d 80c9 a2bd 7bf1 15bd 7e84 d8bc
00000070: bba8 893c c010 3d3d 3303 bfbd 34f7 85bd
00000080: cd31 8a3d f367 5f3d bd61 8bbd 5cd8 b03c
00000090: c5b2 b8bc 49eb d73c e5c2 b13a beeb 8e3d
000000a0: a2d2 8ebc 3e74 8bbc b9a9 a5bd dde0 9f3d
000000b0: 799d d3bc 97ff 973d 748e afbb bf5c a2bd
000000c0: 3700 873c f22d 8e3d

fc2.weight f4 [1, 50]
0.0815195 0.03454904 0.049839005 0.050019026 0.03216513 0.062806815 0.05636392 0.06027991
-0.07251515 -0.0051402138 0.0883788 0.10092662 -0.066208616 0.035875726 -0.08394985 0.05335112
0.055839587 -0.07616564 0.10894916 0.09878005 0.08967319 0.050513387 0.06418529 0.040926278
-0.06260305 0.051587246 -0.050586443 0.050406437 -0.05480651 -0.0470782 -0.09719659 -0.027810182
0.08158391 0.05128606 0.01191843 0.092039384 0.10138709 -0.050462708 -0.09050919 0.12442979
-0.11757584 -0.10745612 -0.11082269 -0.07865156 -0.076738365 0.046609584 -0.04883023 0.107896686
-0.11687296 -0.08972409
00000000: b2f3 a63d 4b83 0d3d fc23 4c3d c0e0 4c3d
00000010: 95bf 033d dca0 803d dbdd 663d 11e8 763d
00000020: d382 94bd 3d6f a8bb f2ff b43d 9eb2 ce3d
00000030: 6298 87bd 6df2 123d e6ed abbd b486 5a3d
00000040: 0db8 643d bbfc 9bbd bd20 df3d 324d ca3d
00000050: 94a6 b73d 20e7 4e3d 9473 833d 50a2 273d
00000060: 0736 80bd 264d 533d bb33 4fbd fb76 4e3d
00000070: cb7c 60bd 12d5 40bd 010f c7bd 2ed2 e3bc
00000080: 7715 a73d 5511 523d 8545 433c 257f bc3d
00000090: 09a4 cf3d fcb1 4ebd e25c b9bd 0cd5 fe3d
000000a0: 9acb f0bd f411 dcbd 02f7 e2bd 1214 a1bd
000000b0: 0129 9dbd b1e9 3e3d 3502 48bd f0f8 dc3d
000000c0: 175b efbd 44c1 b7bd
