models/lstm_model.pth (torch, 128181 bytes, 9 tensors)

lstm.weight_ih_l0 f4 [200, 1]
-0.05536912 -0.04322525 -0.14126556 0.1239519 0.11677327 0.047928523 0.09293757 0.021289991
-0.07241594 0.06255167 -0.056123946 0.2642668 -0.065416984 0.07155014 0.10951046 0.00677174
0.07351339 0.16417578 -0.23238629 0.15692934 -0.0029220688 0.21241374 0.24073449 0.11151696
0.15646954 -0.014051509 0.19289882 -0.23092172 0.086159155 0.11402169 0.16171482 -0.18514468
-0.03293073 0.033489026 0.24046446 0.21072656 0.11465856 0.04073921 0.2550751 0.06313743
0.28920746 0.09020149 -0.05343946 -0.13274093 0.27875876 -0.03661768 0.23873687 0.04216049
0.1257776 -0.045102995 0.1866589 -0.039295502 0.038010404 0.28023744 0.062628806 0.006968576
0.06766187 -0.15899216 -0.21259977 0.18153754 -0.14648604 0.21200721 -0.2667552 0.21649969
0.10505668 0.15909494 0.13742515 0.0235036 -0.12303809 0.24480563 -0.31190977 0.15743841
0.03715054 0.18055382 0.050901633 0.058363155 0.065590285 -0.3368224 0.3331491 0.048686646
0.11264142 -0.1230735 -0.14051336 -0.0105087785 0.17991287 0.0022420404 -0.09471075 0.01713958
-0.0005616967 0.22945403 0.2257058 0.24308638 -0.115276255 -0.34900123 0.19260164 -0.06499697
0.08989615 -0.08306632 0.005276337 -0.015397447 -0.019323813 0.17301016 -0.041345205 0.2345763
0.29888082 0.01772345 -0.28440946 0.12309664 0.20083103 -0.1891346 -0.13543653 -0.0939203
-0.16345328 0.009210742 -0.12659718 -0.1530864 0.257709 0.19441609 0.27688885 0.13700803
-0.31208348 0.31497657 -0.096860796 -0.07984742 -0.29852414 -0.1182506 -0.10310836 -0.19115098
-0.2880486 -0.052119177 0.3319613 0.22501822 0.14277484 -0.13269098 0.23159325 0.061758947
0.112419724 -0.035290416 -0.32081228 0.29922998 -0.1408756 0.003745686 -0.06307778 0.28083712
-0.26899517 0.039546892 0.074520774 -0.098182015 0.25873718 0.004579204 0.21021993 -0.23430791
0.012010326 0.28429475 0.23417772 0.19488883 0.3135506 -0.21967143 0.056287702 0.20611258
-0.16733819 0.27059442 -0.23033372 0.07913345 0.21899538 0.21470001 0.21290803 0.15664078
-0.2985514 0.20000955 -0.10304901 0.19421178 0.051657755 0.3016075 0.24916115 0.026349306
0.09008084 -0.34969732 0.34517086 0.09900336 0.18021342 -0.23420256 -0.0890283 0.058323186
0.072894804 0.10663491 0.118111104 0.014343792 0.100732915 0.2685799 0.06372896 0.24066493
0.084458835 -0.10603968 0.30560848 0.12938906 0.111410834 0.06288537 0.3623956 0.14465332
00000000: bbca 62bd f60c 31bd eba7 10be 7eda fd3d
00000010: d326 ef3d b350 443d 0d56 be3d 5968 ae3c
00000020: cf4e 94bd 171b 803d 39e2 65bd fa4d 873e
00000030: 57f9 85bd e188 923d 0547 e03d 79e5 dd3b
00000040: 308e 963d b21d 283e acf6 6dbe 16b2 203e
00000050: 2e80 3fbb fd82 593e 1a83 763e 0163 e43d
00000060: 8d39 203e 4d38 66bc 4587 453e be76 6cbe
00000070: 3674 b03d 3484 e93d 9298 253e 9196 3dbe
00000080: 60e2 06bd ca2b 093d 513c 763e b4c8 573e
00000090: 1bd2 ea3d 28de 263d 3499 823e 324e 813d
000000a0: 0013 943e 8fbb b83d 56e3 5abd 3ded 07be
000000b0: 78b9 8e3e 6cfc 15bd 7077 743e 7ab0 2c3d
000000c0: d8cb 003e ebbd 38bd 8323 3f3e 52f4 20bd
000000d0: ccb0 1b3d 487b 8f3e 8843 803d a758 e43b
000000e0: 4e92 8a3d d7ce 22be c1b3 59be fae4 393e
000000f0: 7000 16be 6b18 593e 2394 88be 18b2 5d3e
00000100: f527 d73d c9e9 223e 2eb9 0c3e 9f8a c03c
00000110: 65fb fbbd 54ae 7a3e a3b2 9fbe 8937 213e
00000120: 2a2b 183d 1ae3 383e 3b7e 503d 340e 6f3d
00000130: 3354 863d fc73 acbe 8592 aa3e a66b 473d
00000140: 8bb0 e63d f60d fcbd bce2 0fbe 032d 2cbc
00000150: 143b 383e 32ef 123b b6f7 c1bd 4e68 8c3c
00000160: d43e 13ba fff5 6a3e 6c1f 673e a3eb 783e
00000170: f515 ecbd 4ab0 b2be 5d39 453e 221d 85bd
00000180: 791b b83d ad1e aabd 1fe5 ac3b 9345 7cbc
00000190: f94c 9ebc 9329 313e 9759 29bd c534 703e
000001a0: e806 993e c530 913c 1e9e 91be 171a fc3d
000001b0: a6a6 4d3e 80ac 41be e0af 0abe 4959 c0bd
000001c0: 4c60 27be a7e8 163c b1a2 01be aec2 1cbe
000001d0: 6ff2 833e 0315 473e 60c4 8d3e d54b 0c3e
000001e0: 68c9 9fbe 9c44 a13e f45e c6bd 0b87 a3bd
000001f0: 28d8 98be 5f2d f2bd 7a2a d3bd 15bd 43be
00000200: 1b7b 93be eb7a 55bd d5f6 a93e 2d6b 663e
00000210: 9133 123e 25e0 07be c826 6d3e f3f6 7c3d
00000220: 503c e63d af8c 10bd 8241 a4be ac34 993e
00000230: b141 10be 2f7a 753b ec2e 81bd e2c9 8f3e
00000240: bcb9 89be ecfb 213d 599e 983d a713 c9bd
00000250: 3379 843e 260d 963b e543 573e 6aee 6fbe
00000260: f5c6 443c 158f 913e 49cc 6f3e f090 473e
00000270: b489 a03e 8cf1 60be ef8d 663d 2d0f 533e
00000280: b45a 2bbe 5a8b 8a3e 9adc 6bbe b810 a23d
00000290: 5340 603e 52da 5b3e 9004 5a3e 7166 203e
000002a0: bbdb 98be 4ecf 4c3e 5c0b d3bd 74df 463e
000002b0: 1597 533d 4c6c 9a3e 1a24 7f3e 80da d73c
000002c0: 4e7c b83d 870b b3be 3cba b03e 46c2 ca3d
000002d0: de89 383e ccd2 6fbe 7854 b6bd 4be4 6e3d
000002e0: df49 953d 6763 da3d 3ce4 f13d 3902 6b3c
000002f0: 0f4d ce3d 4e83 893e 5484 823d de70 763e
00000300: c1f8 ac3d 552b d9bd b778 9c3e 917e 043e
00000310: 5d2b e43d 0bca 803d eb8b b93e 0020 143e

lstm.weight_hh_l0 f4 [200, 50]
-0.045937855 0.010489024 -0.0954635 0.03530348 0.007155101 0.010872526 0.106851265 -0.09961933
0.1812155 0.02127314 -0.032359753 0.09284846 0.0379435 -0.098409325 0.025016695 -0.09337296
-0.034846637 -0.09657366 0.17631535 -0.011648334 -0.1501778 -0.005304124 -0.011063201 0.052849647
0.093218274 -0.09689149 -0.015664332 0.08674164 0.0844412 0.067803696 -0.025925511 0.038314596
0.02826332 -0.0085318005 0.101327345 -0.045954272 -0.026264172 0.09656388 0.0130134495 -0.09770494
-0.027908556 0.09450924 0.0804005 0.21039438 -0.09578966 -0.10321503 0.045347348 0.09642727
0.14150044 0.057288818 0.15656182 -0.18640439 0.07879483 0.043141875 0.05199368 0.002453485
-0.1312715 -0.10307708 -0.13061212 0.004043154 -0.0012416036 -0.13239503 0.03444443 0.18112123
0.06281227 0.08955185 0.17848085 0.023761796 -0.1126745 0.123111516 0.14353237 0.061140805
-0.16497414 0.028121151 -0.13253544 0.034564607 0.0032202678 0.17446427 -0.0047670966 -0.035220016
-0.053983252 -0.12962855 -0.17893042 -0.16072828 0.11259357 0.063137725 0.05049971 -0.035670213
0.10999243 0.07888375 -0.13696459 -0.028362934 0.17471144 -0.24274077 0.012765631 0.13355619
0.14901674 0.07564785 0.009891222 0.015670383 -0.10035305 0.05322748 -0.06412659 0.055119403
-0.050917815 -0.073062755 -0.038429406 0.1107152 0.066465154 -0.08077407 -0.12005781 -0.008857119
-0.007173342 -0.06060161 0.11533627 0.025833951 -0.01828572 -0.015397621 0.0593412 -0.12009665
-0.16096145 -0.13029236 0.08204989 0.036216088 -0.10913762 0.13404462 0.090331435 -0.12212133
0.10448398 0.01548814 -0.004891985 0.13490346 0.1339688 0.049689267 -0.08918625 0.088091366
0.09561018 -0.0051728217 -0.09900562 0.14703293 -0.03946268 -0.10437925 -0.15096343 0.05663127
0.07237606 -0.039970446 -0.15629102 0.07475171 -0.00904635 0.14442798 -0.0131482035 0.19357851
-0.025206866 -0.047695518 0.11089293 0.028619988 0.0882537 0.020291789 0.001834679 -0.11760173
-0.053411916 -0.032616623 -0.11349846 0.12504315 -0.09287916 -0.006104171 0.0986944 0.08508786
0.08754514 0.06621019 -0.13794804 -0.097170435 0.030145613 -0.1141437 -0.14990251 -0.12171251
0.10256165 -0.13739075 0.089731425 0.08429693 0.04978267 -0.07465989 -0.11729693 -0.12357909
0.11469683 -0.081983455 0.001270843 0.01646671 -0.053979572 0.06497734 -0.12241933 0.12450403
-0.092682056 -0.002860226 -0.14503254 0.08593736 -0.060897555 -0.057498418 0.1170888 -0.012177682
0.1431482 0.06914083 0.02873039 -0.058394365 -0.0908588 0.008801078 -0.027213855 0.0919611
-0.07158104 -0.013704645 0.09349306 0.049191996 0.08918928 0.026215522 -0.16920638 -0.0578463
0.15162434 -0.042425293 -0.07665982 0.16392009 0.015621252 0.0031192221 -0.016866684 0.025648788
-0.005565787 0.06151686 -0.03591897 -0.052876264 -0.10747526 -0.048230056 -0.012763966 0.07412064
0.027272057 0.07975061 0.1422733 0.14619863 -0.0885694 -0.06475735 -0.05961958 0.15439449
-0.036431905 0.0873794 0.040403828 -0.10616229 -0.030341899 -0.009940222 -0.04756862 0.15929763
-0.08423632 -0.13777089 -0.10757176 -0.025501454 -0.0311245 -0.06297802 0.13669528 0.07648334
00000000: 5529 3cbd 28da 2b3c 5e82 c3bd 629a 103d
00000010: 5675 ea3b ae22 323c d6d4 da3d 3805 ccbd
00000020: 8e90 393e 0245 ae3c a98b 04bd 5527 be3d
00000030: a56a 1b3d d48a c9bd d0ef cc3c 533a bfbd
00000040: 59bb 0ebd 69c8 c5bd 038c 343e a7d8 3ebc
00000050: 36c8 19be 38ce adbb 6e42 35bc df78 583d
00000060: 39e9 be3d 0c6f c6bd 7c52 80bc 9aa5 b13d
00000070: 82ef ac3d aadc 8a3d bd61 d4bc c4ef 1c3d
00000080: 7a88 e73c f7c8 0bbc b684 cf3d 8c3a 3cbd
00000090: f627 d7bc 49c3 c53d 5d36 553c 8719 c8bd
000000a0: 7ca0 e4bc 0f8e c13d 04a9 a43d a071 573e
000000b0: 5f2d c4bd 6762 d3bd 24be 393d a97b c53d
000000c0: 7ee5 103e aea7 6a3d be51 203e cbe0 3ebe
000000d0: 2f5f a13d 89b5 303d 53f7 543d a6ca 203b
000000e0: 096c 06be 131a d3bd 2fbf 05be 6f7c 843b
000000f0: 4ebd a2ba 9092 07be 9a15 0d3d d877 393e
00000100: b8a3 803d f666 b73d afc3 363e 19a8 c23c
00000110: e3c1 e6bd e421 fc3d 26fa 123e c86e 7a3d
00000120: fbee 28be 545e e63c 5fb7 07be 9e93 0d3d
00000130: 210b 533b c3a6 323e 4e35 9cbb dd42 10bd
00000140: 8b1d 5dbd 59bd 04be 8939 37be f495 24be
00000150: 7597 e63d 5a4e 813d c9d8 4e3d ee1a 12bd
00000160: b643 e13d ce8d a13d 7240 0cbe 6259 e8bc
00000170: 8ee7 323e 0991 78be f026 513c f4c2 083e
00000180: d897 183e 43ed 9a3d cb0e 223c 2d5f 803c
00000190: e685 cdbd 0f05 5a3d cd54 83bd e2c4 613d
000001a0: 338f 50bd eda1 95bd 2768 1dbd a7be e23d
000001b0: e21e 883d e06c a5bd dee0 f5bd 731d 11bc
000001c0: 5b0e ebbb 6539 78bd 6c35 ec3d b9a1 d33c
000001d0: efcb 95bc 4e46 7cbc c20f 733d 3cf5 f5bd
000001e0: 14d3 24be 5c6b 05be c609 a83d 5257 143d
000001f0: 8b83 dfbd fe42 093e b0ff b83d bf1a fabd
00000200: b2fb d53d f8c1 7d3c f24c a0bb 2224 0a3e
00000210: 1e2f 093e f986 4b3d 48a7 b6bd 3f69 b43d
00000220: 45cf c33d c680 a9bb 75c3 cabd cd8f 163e
00000230: 9fa3 21bd cac4 d5bd 2896 1abe 31f6 673d
00000240: e639 943d 0db8 23bd c10a 20be 6d17 993d
00000250: 2437 14bc eee4 133e 906b 57bc 7239 463e
00000260: a17e cebc 605c 43bd d51b e33d 7774 ea3c
00000270: 5bbe b43d f73a a63c 9d79 f03a 2dd9 f0bd
00000280: 74c6 5abd 0299 05bd e171 e8bd 500b 003e
00000290: 6e37 bebd 7f05 c8bb 4a20 ca3d 8b42 ae3d
000002a0: de4a b33d 3599 873d 4042 0dbe 4b01 c7bd
000002b0: eff3 f63c 2cc4 e9bd 0b80 19be 6944 f9bd
000002c0: d80b d23d 29b0 0cbe 1cc5 b73d dea3 ac3d
000002d0: eae8 4b3d 49e7 98bd 5f39 f0bd 0917 fdbd
000002e0: 2ce6 ea3d f1e6 a7bd 6a92 a63a 32e5 863c
000002f0: af19 5dbd d712 853d fcb6 fabd f8fb fe3d
00000300: 17d0 bdbd a172 3bbb 6983 14be edff af3d
00000310: b76f 79bd 7683 6bbd 41cc ef3d e684 47bc
00000320: 7195 123e b599 8d3d ff5b eb3c ee2e 6fbd
00000330: 2e14 babd 6632 103c 97ef debc 1a56 bc3d
00000340: 1599 92bd 7389 60bc 4a79 bf3d 8c7d 493d
00000350: dfa8 b63d efc1 d63c 7044 2dbe 3ef0 6cbd
00000360: 6943 1b3e 25c6 2dbd d3ff 9cbd abda 273e
00000370: 48f0 7f3c dd6b 4c3b 002c 8abc 681d d23c
00000380: 3561 b6bb 1af9 7b3d c51f 13bd c894 58bd
00000390: fd1b dcbd e18c 45bd f41f 51bc 90cc 973d
000003a0: a669 df3c 4a54 a33d 18b0 113e 18b5 153e
000003b0: e063 b5bd 809f 84bd a933 74bd 9719 1e3e
000003c0: 9f39 15bd f9f3 b23d 7c7e 253d 9d6b d9bd
000003d0: 938f f8bc 50dc 22bc 50d7 42bd eb1e 233e
000003e0: 1784 acbd d013 0dbe 954e dcbd 6de8 d0bc
000003f0: cff8 febc 9ffa 80bd d9f9 0b3e 4ca3 9c3d

lstm.bias_ih_l0 f4 [200]
-0.11286121 0.062070455 0.05712615 0.014226149 0.056685086 0.12004229 0.1809447 0.16041012
0.2892674 0.094000466 0.027953638 -0.1317603 0.05149184 0.0906911 -0.008453701 0.077392355
-0.033325434 0.09691817 0.26538208 -0.10775309 0.19041513 0.12461469 -0.12964916 -0.050157137
0.05041837 0.11380148 -0.023199378 0.034300543 0.13994351 0.03414234 0.036389153 0.07287421
-0.02564703 0.14300907 -0.0014565429 0.12701632 -0.054027785 0.0762768 0.17953727 0.0026422513
0.0056892815 -0.057113566 0.076735206 0.0443225 0.1291752 -0.114749126 -0.025389828 -0.026530182
0.25229725 0.078963205 -0.009043316 0.063441485 -0.14375705 -0.011347725 0.13125576 -0.03549012
-0.060181513 -0.039936796 0.09865464 0.031109111 0.04854271 -0.068750985 0.08142124 0.010182419
0.12555203 0.0706277 -0.13272925 0.11063248 -0.046442848 -0.037887104 0.08087564 -0.09251134
-0.0042065894 -0.0748578 -0.024403112 0.009983478 -0.03357324 0.06978909 -0.034978207 0.019535385
0.003925132 -0.059142295 -0.11173351 0.06909117 -0.11031601 0.01336933 0.07156261 0.128065
-0.073619194 0.11839986 -0.06467696 -0.07213643 0.01942407 -0.027002139 -0.08527484 0.014900954
0.13738295 0.08632496 0.06697694 0.081293516 0.12277115 -0.07698414 0.09498331 0.028440291
0.08512676 -0.13854052 0.03712654 -0.028962296 -0.020074153 -0.11013847 -0.0012500422 -0.03184287
-0.027032193 0.1332231 -0.106203504 0.033974256 0.08045263 0.014773641 0.080907345 0.030675156
0.1034396 0.06100762 -0.096402556 -0.12538917 -0.060114685 -0.09124039 -0.10232044 0.06208573
-0.097523734 -0.10716047 -0.073821224 -0.11492663 -0.10528398 -0.03459999 0.008040846 0.05881742
0.119319685 -0.034910064 -0.06002365 -0.079929374 -0.11120832 0.10721939 0.12209859 0.019156924
0.04054142 0.078081205 0.11731299 0.089130975 0.09402919 0.03360244 0.014181929 0.021056188
0.06987983 0.051003862 0.12756322 0.13418756 0.16855526 0.16151154 0.28493115 -0.017528923
-0.022054533 0.031130822 0.121155865 -0.10678429 0.02789124 0.064579494 0.003280438 0.036317173
0.058932684 0.1577744 0.20987931 -0.01703332 0.07677054 -0.09547586 -0.027893094 0.11355838
0.00036444937 0.038700584 0.101080984 -0.017387394 0.07093582 -0.021745449 0.10704102 -0.007736739
0.052459095 -0.09268637 -0.0728312 -0.118516624 0.15360269 0.17001498 0.07879535 0.061854247
-0.06143116 0.14164215 0.08110899 0.10866689 -0.090222366 -0.07835324 0.064755365 0.116384946
00000000: c723 e7bd 973d 7e3d 1cfd 693d cb14 693c
00000010: 9f2e 683d bbd8 f53d 9149 393e 8d42 243e
00000020: db1a 943e 5183 c03d 07ff e43c 2cec 06be
00000030: 1ce9 523d 41bc b93d 6481 0abc e27f 9e3d
00000040: 4080 08bd 097d c63d 29e0 873e a7ad dcbd
00000050: 2ffc 423e fd35 ff3d c0c2 04be 9271 4dbd
00000060: 7e83 4e3d c010 e93d 9f0c bebc ba7e 0c3d
00000070: 5a4d 0f3e d7d8 0b3d cb0c 153d 133f 953d
00000080: b819 d2bc f870 123e 78e9 beba 9110 023e
00000090: 3d4c 5dbd 0337 9c3d 9ed8 373e 9f29 2d3b
000000a0: 276d ba3b eaef 69bd 5927 9d3d 828b 353d
000000b0: 8146 043e 9701 ebbd 54fe cfbc d355 d9bc
000000c0: 1b2d 813e 76b7 a13d 6b2a 14bc 9ced 813d
000000d0: 0c35 13be cfeb 39bc e967 063e 175e 11bd
000000e0: e480 76bd c494 23bd 720b ca3d 89d8 fe3c
000000f0: b8d4 463d 51cd 8cbd 2ec0 a63d 29d4 263c
00000100: b690 003e 41a5 903d 2dea 07be 4893 e23d
00000110: db3a 3ebd 822f 1bbd 21a2 a53d 9676 bdbd
00000120: 6ed7 89bb 0c4f 99bd 09e9 c7bc be91 233c
00000130: 1884 09bd 95ed 8e3d 4f45 0fbd ac08 a03c
00000140: 659e 803b 313f 72bd 8ad4 e4bd ac7f 8d3d
00000150: 5ced e1bd 090b 5b3c 6b8f 923d 7923 033e
00000160: a9c5 96bd a07b f23d 5b75 84bd 44bc 93bd
00000170: 3a1f 9f3c 9733 ddbc 93a4 aebd 2223 743c
00000180: 1eae 0c3e 24cb b03d 352b 893d 377d a63d
00000190: 716f fb3d dca9 9dbd 9c86 c23d 9dfb e83c
000001a0: f056 ae3d 91dd 0dbe 0012 183d 5642 edbc
000001b0: 8d72 a4bc 4790 e1bd 75d8 a3ba ab6d 02bd
000001c0: 9e72 ddbc a36b 083e 3981 d9bd 9728 0b3d
000001d0: 59c4 a43d 240d 723c c0b2 a53d 774a fb3c
000001e0: 24d8 d33d 20e3 793d b46e c5bd 0566 00be
000001f0: d13a 76bd 3edc babd 618d d1bd 9b4d 7e3d
00000200: 86ba c7bd f376 dbbd 952f 97bd a75e ebbd
00000210: 219f d7bd b8b8 0dbd c1bd 033c 89ea 703d
00000220: e15d f43d dbfd 0ebd 5cdb 75bd 03b2 a3bd
00000230: 30c1 e3bd d795 db3d d30e fa3d fbee 9c3c
00000240: c30e 263d 0ae9 9f3d cb41 f03d 4d8a b63d
00000250: 6092 c03d b6a2 093d 525b 683c 077e ac3c
00000260: 281d 8f3d 6de9 503d ef9f 023e 7768 093e
00000270: c099 2c3e 4863 253e 7fe2 913e d198 8fbc
00000280: b5ab b4bc 1106 ff3c 9120 f83d b9b1 dabd
00000290: 2b7c e43c 4142 843d 9efc 563b 51c1 143d
000002a0: 6663 713d 9d8f 213e 9aea 563e 7689 8bbc
000002b0: df39 9d3d d988 c3bd 0f80 e4bc 4c91 e83d
000002c0: 9113 bf39 8184 1e3d 8c03 cf3d 0270 8ebc
000002d0: cd46 913d 8323 b2bc 5338 db3d 7884 fdbb
000002e0: 59df 563d 5ad2 bdbd 8628 95bd d8b8 f2bd
000002f0: 064a 1d3e 6818 2e3e 755f a13d e15a 7d3d
00000300: 3d9f 7bbd a40a 113e 781c a63d bf8c de3d
00000310: 81c6 b8bd aa77 a0bd 769e 843d 3b5b ee3d

lstm.bias_hh_l0 f4 [200]
-0.0029479503 0.17195244 -0.070930816 -0.008787172 0.06369273 -0.036803614 0.17413568 0.13362278
0.060826138 -0.045576528 0.12479444 0.09168223 0.037031185 0.12581559 0.0003570673 -0.13482302
0.02709452 0.20055142 0.095288165 -0.08384436 0.17887329 -0.022386635 0.06390679 0.049886018
0.047027793 0.057716455 0.09658136 0.13781846 0.047327727 0.05234703 0.026679704 -0.09683663
0.09549463 0.06379635 0.1560447 0.0003389242 0.07502467 0.08520846 0.058228686 -0.029556472
-0.102171354 0.1085756 -0.13163932 0.1558617 -0.03550521 -0.036519542 0.099205576 -0.13362543
0.23521793 0.010438051 0.08595739 0.0269094 0.05223834 -0.038761176 -0.058930922 0.061239608
-0.112772025 -0.07537458 -0.011619719 0.13474828 0.048493415 -0.0652828 0.0918055 0.077198215
0.039361622 0.11485117 0.10066249 0.045735203 -0.093413815 0.07213395 0.13804562 -0.06247783
0.08629944 0.13938867 0.0566616 0.107569866 0.072501674 -0.0029731423 -0.12138538 -0.057060502
0.08519398 -0.120586775 0.13977243 0.023359375 -0.04094969 0.10468609 -0.132833 -0.011393608
-0.13995129 0.066180676 0.029320301 0.10540265 -0.07402907 0.13361146 -0.13569969 0.093302354
0.08144418 0.041840967 -0.09131699 -0.07054009 -0.01703976 0.06033653 0.085309476 0.12059373
0.021178741 -0.03623152 -0.11694623 -0.02182312 0.0030414495 -0.06409476 0.07178654 -0.09752749
0.043462902 0.014237362 -0.08189069 -0.11073146 -0.09643639 0.12276146 -0.06771566 0.04861339
-0.029637441 0.021112835 -0.12043658 0.06174002 0.12413156 -0.016330522 0.012365665 -0.08548709
-0.073038556 -0.114641406 0.104868196 0.0115275085 0.029501852 -0.021092433 0.06581503 0.10282362
-0.11111884 -0.1022351 -0.016899986 0.01759305 -0.035411477 0.07676383 0.061419662 0.013967484
-0.11593309 -0.055261314 0.09510756 -0.042901237 -0.09705969 -0.045994874 0.10527491 0.09399086
-0.07604122 0.12996216 0.015569465 0.1156028 0.20065503 -0.076052934 0.14847168 0.12501544
-0.1041008 0.10074715 0.14729927 0.14257638 -0.06805962 0.117604874 0.10462066 0.22346558
0.1811182 0.023415755 0.07825839 -0.024426017 0.12368818 0.056534287 0.0660307 0.15650317
-0.10348238 0.12353522 0.15830684 -0.051468335 0.122653775 0.09112408 -0.0007944809 0.051023897
0.112563975 -0.03818101 -0.091287136 0.04348014 -0.06722122 -0.073023275 0.024298033 -0.05977804
0.04524782 0.12342259 -0.09142308 -0.104896344 0.16235684 -0.0031286913 0.11623603 -0.061562296
00000000: 6632 41bb 4d14 303e 2d44 91bd 12f8 0fbc
00000010: 5671 823d 63bf 16bd a050 323e 69d4 083e
00000020: d424 793d 74ae 3abd 3a94 ff3d e5c3 bb3d
00000030: 03ae 173d cdd5 003e c334 bb39 0c0f 0abe
00000040: 54f5 dd3c 5a5d 4d3e 7126 c33d 98b6 abbd
00000050: 8f2a 373e 2d64 b7bc 90e1 823d 4855 4c3d
00000060: 37a0 403d 1768 6c3d 73cc c53d 4820 0d3e
00000070: b8da 413d d769 563d 658f da3c 4852 c6bd
00000080: b092 c33d a9a7 823d 2fca 1f3e a3b1 b139
00000090: 89a6 993d c681 ae3d 3481 6e3d 6a20 f2bc
000000a0: 373f d1bd e25c de3d 75cc 06be 369a 1f3e
000000b0: e96d 11bd 8495 15bd 4b2c cb3d 1bd5 08be
000000c0: f8dc 703e 5c04 2b3c 6e0a b03d 1a71 dc3c
000000d0: dff7 553d 0ac4 1ebd 8d61 71bd 62d6 7a3d
000000e0: 05f5 e6bd fd5d 9abd a260 3ebc 74fb 093e
000000f0: 08a1 463d fdb2 85bd 8604 bc3d 191a 9e3d
00000100: a739 213d 1737 eb3d 2328 ce3d d654 3b3d
00000110: be4f bfbd f7ba 933d d55b 0d3e c1e8 7fbd
00000120: c3bd b03d e7bb 0e3e fe15 683d 974d dc3d
00000130: c27b 943d 0dd9 42bb e698 f8bd 46b8 69bd
00000140: 2e7a ae3d 33f6 f6bd 8120 0f3e 295c bf3c
00000150: ddba 27bd a965 d63d 6005 08be 41ac 3abc
00000160: 644f 0fbe bc89 873d 2131 f03c 58dd d73d
00000170: 8e9c 97bd 71d1 083e dcf4 0abe 4e15 bf3d
00000180: 35cc a63d 6f61 2b3d 6704 bbbd 5377 90bd
00000190: f796 8bbc 7023 773d bcb6 ae3d d8f9 f63d
000001a0: 0a7f ad3c 8167 14bd 8181 efbd 66c6 b2bc
000001b0: 0e53 473b 1d44 83bd d204 933d 7ebc c7bd
000001c0: 2806 323d d343 693c 4eb6 a7bd 2dc7 e2bd
000001d0: 7180 c5bd 5c6a fb3d 82ae 8abd d61e 473d
000001e0: 38ca f2bc d3f4 ac3c 74a7 f6bd 1ae3 7c3d
000001f0: b038 fe3d 96c7 85bc 5c99 4a3c db13 afbd
00000200: 3d95 95bd 1dc9 eabd 23c5 d63d e0dd 3c3c
00000210: dead f13c 0aca acbc 08ca 863d 3195 d23d
00000220: 4692 e3bd a360 d1bd d771 8abc 4d1f 903c
00000230: a00b 11bd 5b36 9d3d 2f93 7b3d e0d7 643c
00000240: 546e edbd b059 62bd c1c7 c23d 35b9 2fbd
00000250: 3bc7 c6bd 1f65 3cbd 5f9a d73d 487e c03d
00000260: 80bb 9bbd cd14 053e 1217 7f3c 29c1 ec3d
00000270: 8378 4d3e a4c1 9bbd f608 183e 0c04 003e
00000280: cd32 d5bd 8654 ce3d 9fd5 163e 8bff 113e
00000290: d862 8bbd d3da f03d 5b43 d63d 29d4 643e
000002a0: 0d77 393e 66d2 bf3c ef45 a03d 1219 c8bc
000002b0: 3b50 fd3d 7f90 673d 1b3b 873d 5e42 203e
000002c0: 92ee d3bd 0900 fd3d 301b 223e 76d0 52bd
000002d0: e731 fb3d 439f ba3d b644 50ba 6ffe 503d
000002e0: f187 e63d b163 1cbd c0f4 babd 3b18 323d
000002f0: 47ab 89bd 3a8d 95bd ab0c c73c d1d9 74bd
00000300: c755 393d fcc4 fc3d 063c bbbd e5d3 d6bd
00000310: df40 263e bb0a 4dbb 280d ee3d bf28 7cbd

lstm.weight_ih_l1 f4 [200, 50]
0.05607374 0.11361685 0.063213974 -0.042035285 0.09260175 0.090553805 0.09600911 -0.12414627
0.14975302 -0.060207445 -0.061361767 -0.11011899 0.008381947 -0.10770816 -0.0940665 -0.023855159
0.08825649 0.10640488 0.1679144 -0.13233484 -0.1558731 0.06279729 -0.110324495 -0.07742907
-0.09997312 0.05636859 0.05331398 -0.08867226 -0.09116309 0.026049562 0.074724 0.1325185
0.1105466 -0.057162363 0.010440404 0.07989898 0.061972138 0.061611157 0.09735804 0.08497607
-0.018445453 -0.13581875 -0.06538521 0.13803378 0.10716932 0.043616075 -0.09049223 -0.12461394
0.18815804 -0.03868701 -0.022197379 0.038287945 0.097893156 0.14848667 0.08318362 0.0814571
0.0781392 -0.1419972 0.0883761 -0.096195556 0.07392849 0.0863383 0.0027299572 0.114798695
-0.15247388 -0.052225944 0.07011946 0.052588046 0.196794 -0.035922892 0.0378879 0.014027655
-0.012361617 0.01212027 0.077405326 -0.056384545 -0.030675633 0.08077358 0.108130336 -0.09188164
0.07992979 -0.00078495994 -0.1397713 -0.1486493 -0.0060653244 -0.019433504 0.06972375 -0.08923758
-0.01854373 0.1974096 -0.006107744 0.10517403 -0.0756209 0.20488265 -0.07096835 0.1368963
-0.02655462 0.015401761 0.0844689 0.031213833 0.033658035 0.041873362 -0.013578162 0.13512042
0.1806831 0.11479081 -0.1541022 0.10398341 0.3471633 0.036523737 -0.00675555 -0.123340644
-0.020617831 -0.09951213 0.05104499 0.053292513 0.17887853 0.0030699468 0.13879475 -0.03670331
-0.17693603 -0.03035429 0.08577297 0.05140764 0.059996687 0.076658405 -0.11021986 0.13292941
0.05849899 0.013295445 -0.077197835 -0.010670183 -0.15684311 -0.06676438 0.17076163 0.020117441
-0.045366157 0.09997454 -0.095085695 0.19768576 -0.06152368 -0.064472206 0.06705114 0.10129314
-0.012619294 0.0021119518 0.15577672 -0.12842572 -0.003748603 -0.12128657 -0.040552292 0.11169871
-0.048314538 -0.029841784 -0.052991293 -0.05218654 -0.16094095 0.022945045 0.18714063 -0.05862511
-0.017924825 0.116122104 0.047861837 -0.13523275 -0.119418345 0.044628672 0.043428443 0.16509673
0.20434944 -0.097475916 -0.20743895 0.060275417 0.0391077 -0.027417049 0.05879415 0.124282174
-0.020233156 0.0048367875 -0.1472147 -0.014508798 -0.080513805 0.12849192 0.059853606 0.062754415
-0.038114507 0.061593033 0.0808435 -0.06481449 -0.060588684 0.11568635 0.033161826 -0.0077967667
-0.0057152025 -0.0016130877 -0.03604887 0.013153 0.060841747 -0.066443436 0.096442066 0.02745813
0.12279939 0.1545015 -0.14321226 -0.030019255 0.012267283 -0.0558632 -0.09305696 0.027942117
0.18487817 -0.04055149 -0.10056545 -0.06498707 -0.0027498568 0.046394624 0.021400742 0.08107922
0.104690224 0.18953718 0.11446729 0.0045802384 -0.21323468 -0.070640504 -0.062194802 0.040608425
-0.04444207 0.050146006 0.04154813 -0.18753833 0.1021393 -0.036557253 -0.06761823 0.082158536
0.06222528 -0.09444391 0.022666793 0.11790943 0.0780959 -0.041846935 -0.07733152 0.10404966
0.13092774 -0.043473538 0.112918265 0.06753175 0.07597782 0.015591607 -0.05689516 0.09784984
0.17669533 -0.018092006 -0.12397585 -0.022065694 0.0052235164 -0.10179665 -0.078818806 -0.021358794
00000000: 94ad 653d f3af e83d 5476 813d 312d 2cbd
00000010: fca5 bd3d 4674 b93d 6da0 c43d 6640 febd
00000020: db58 193e 159c 76bd 7a56 7bbd 1186 e1bd
00000030: 6f54 093c 1996 dcbd f0a5 c0bd e56b c3bc
00000040: d2bf b43d cdea d93d c1f1 2b3e c982 07be
00000050: 339d 1fbe de9b 803d cff1 e1bd 2293 9ebd
00000060: b5be ccbd c0e2 663d c35f 5a3d cd99 b5bd
00000070: b7b3 babd e465 d53c e608 993d eeb2 073e
00000080: 4166 e23d 1523 6abd 3a0e 2b3c 14a2 a33d
00000090: 7fd6 7d3d fb5b 7c3d a763 c73d ef07 ae3d
000000a0: eb1a 97bc 1214 0bbe aee8 85bd ba58 0d3e
000000b0: 977b db3d c5a6 323d fe53 b9bd 9835 ffbd
000000c0: 80ac 403e 4576 1ebd 47d7 b5bc d2d3 1c3d
000000d0: 357c c83d e40c 183e 2c5c aa3d fbd2 a63d
000000e0: 7207 a03d b767 11be 87fe b43d 2d02 c5bd
000000f0: d267 973d 22d2 b03d 15e9 323b 941b eb3d
00000100: 1d22 1cbe dfea 55bd cb9a 8f3d 9066 573d
00000110: 5e84 493e e223 13bd 5830 1b3d 40d4 653c
00000120: 6188 4abc 1994 463c af86 9e3d 7bf3 66bd
00000130: 774b fbbc 9e6c a53d 7073 dd3d 712c bcbd
00000140: 3bb2 a33d c5c5 4dba 3520 0fbe 8637 18be
00000150: a1bf c6bb 0333 9fbc 53cb 8e3d 31c2 b6bd
00000160: 05e9 97bc be25 4a3e 7823 c8bb 7b65 d73d
00000170: 21df 9abd c2cc 513e db57 91bd 8b2e 0c3e
00000180: 1389 d9bc ab57 7c3c 08fe ac3d 27b4 ff3c
00000190: 02dd 093d 6783 2b3d f076 5ebc 025d 0a3e
000001a0: fe04 393e 7217 eb3d f8cc 1dbe 41f5 d43d
000001b0: 63bf b13e ea99 153d a95d ddbb 059a fcbd
000001c0: bae6 a8bc 04cd cbbd 8d14 513d 4049 5a3d
000001d0: ef2b 373e 2931 493b 3620 0e3e 3656 16bd
000001e0: b82e 35be 8fa9 f8bc bda9 af3d d190 523d
000001f0: 16bf 753d 15ff 9c3d f3ba e1bd a61e 083e
00000200: a39c 6f3d 23d5 593c e619 9ebd fed1 2ebc
00000210: 7b9b 20be c3bb 88bd 23dc 2e3e 55cd a43c
00000220: ddd1 39bd 74bf cc3d 4abc c2bd 236e 4a3e
00000230: 4100 7cbd 010a 84bd 1c52 893d c772 cf3d
00000240: 28c1 4ebc ac68 0a3b ef83 1f3e 0882 03be
00000250: 1fab 75bb 1865 f8bd 291a 26bd 4bc2 e43d
00000260: 77e5 45bd c276 f4bc 660d 59bd 8ec1 55bd
00000270: b4cd 24be 3ff7 bb3c cba1 3f3e e220 70bd
00000280: 15d7 92bc 6dd1 ed3d c60a 443d 747a 0abe
00000290: 9b91 f4bd 8ecc 363d 06e2 313d 1e0f 293e
000002a0: fb40 513e 74a1 c7bd e06a 54be 5be3 763d
000002b0: 652f 203d b899 e0bc 22d2 703d a787 fe3d
000002c0: 01c0 a5bc ea7d 9e3b 73bf 16be 4fb6 6dbc
000002d0: 6ce4 a4bd 6393 033e 0e29 753d 6385 803d
000002e0: f51d 1cbd fa48 7c3d 4791 a53d 76bd 84bd
000002f0: d72b 78bd f7ec ec3d b2d4 073d 057c ffbb
00000300: 9846 bbbb 3e6e d3ba fba7 13bd ae7f 573c
00000310: 3235 793d 7f13 88bd 6b83 c53d dfef e03c
00000320: 3f7e fb3d a435 1e3e 3ca6 12be f1ea f5bc
00000330: b7fc 483c d0d0 64bd a694 bebd dee6 e43c
00000340: b450 3d3e 5219 26bd 42f5 cdbd f117 85bd
00000350: f136 34bb 4a08 3e3d 9c50 af3c dd0c a63d
00000360: d467 d63d 0916 423e d46d ea3d d315 963b
00000370: 315a 5abe f8ab 90bd fabf 7ebd 0555 263d
00000380: e308 36bd e665 4d3d 5f2e 2a3d 0c0a 40be
00000390: 692e d13d 0fbd 15bd 6d7b 8abd bc42 a83d
000003a0: efdf 7e3d cf6b c1bd b6af b93c 807a f13d
000003b0: bef0 9f3d b167 2bbd fd5f 9ebd fd17 d53d
000003c0: ec11 063e 4f11 32bd b141 e73d 164e 8a3d
000003d0: 429a 9b3d f173 7f3c e60a 69bd 7f65 c83d
000003e0: 9fef 343e b035 94bc 0de7 fdbd 1dc3 b4bc
000003f0: 082a ab3b c37a d0bd c16b a1bd a3f8 aebc

lstm.weight_hh_l1 f4 [200, 50]
0.08306841 0.0825118 0.0065166624 0.024569316 0.018247657 -0.13894688 0.10049869 -0.07452663
0.0011943057 -0.030211803 -0.08994246 -0.15254259 0.07953331 0.11331471 -0.10758779 -0.03577432
-0.030334676 -0.16165881 -0.10327124 0.021435903 0.05048078 0.072743975 0.10356485 -0.015518733
-0.008800151 0.04715503 -0.04812223 -0.05511645 -0.048710186 0.06504126 -0.021762466 0.005015912
0.1047686 0.09933405 0.08690962 0.016673347 -0.0746239 0.11335955 -0.06201385 0.1333922
0.017863436 0.0807142 -0.0830971 -0.0027540599 0.008753086 -0.070710674 -0.07388497 0.084361024
0.10136636 0.058454968 -0.09175323 0.12518908 0.035664838 -0.029965026 -0.046879616 -0.13532835
-0.05429376 0.112780236 0.015001293 0.051784102 0.0060346713 0.028187256 0.10786772 0.050906308
-0.028050136 0.036030248 -0.100309275 -0.12123408 0.10358884 -0.111166805 0.09009369 0.10688037
0.040059287 -0.017476594 0.10297087 -0.01864273 0.10957264 0.08339641 0.093097396 -0.15458038
0.06281844 0.061572302 0.031056505 0.06117433 -0.10446007 -0.045327738 -0.009540651 -0.01644418
0.07076376 0.09359652 0.0019196353 -0.090022326 0.030344684 -0.03660451 -0.13689883 -0.07224636
0.0058825244 0.005518996 -0.057287224 0.055413894 -0.08097473 0.047507748 -0.03407929 -0.032824513
0.0044046603 0.08499809 0.116161875 -0.059183598 -0.054081302 -0.039410245 -0.07069837 -0.03043024
-0.09027702 0.1029954 0.1617402 -0.13631503 -0.07737097 -0.0056858743 0.09531639 0.1571243
-0.13803487 0.105864644 0.07074619 0.080902055 0.015186033 -0.061267037 -0.017716082 0.032103736
0.049564146 0.06608255 -0.03173811 0.03040807 0.051504925 0.15658315 -0.15445137 -0.09098799
0.17020336 -0.09324684 -0.008183468 0.033402026 0.13341174 -0.012742434 -0.13200714 0.00985413
-0.07498169 0.11307732 0.08368379 -0.09681294 -0.04666449 -0.102809764 0.10977413 -0.12214306
-0.05346714 0.13254851 -0.0037690713 -0.103272565 0.007448051 0.037877493 -0.040038325 -0.0975218
-0.10141505 0.07648864 -0.028585952 -0.11616483 0.017194081 0.05517386 0.11602161 0.08393656
-0.09476265 0.0121880295 0.014320506 0.1262323 0.013849764 0.118145615 -0.11149317 -0.08877931
-0.0010790089 -0.13177791 0.13083409 0.030952642 0.025965666 -0.07492386 0.08767274 -0.058226056
-0.0048622508 -0.062307436 -0.11579477 0.11508792 -0.040967453 0.09337098 -0.11715954 -0.13942733
-0.100327745 -0.124278314 -0.019576332 0.0653814 -0.09960696 -0.06654282 0.121961735 0.12211171
-0.04876108 -0.13248257 0.05877381 0.0773442 -0.006107678 -0.09711356 -0.10895574 0.011138247
0.028863527 -0.017843679 0.09898537 0.1303022 0.112353586 -0.10497374 0.08932572 -0.07760923
0.12230896 -0.15746075 0.015296992 0.111021444 -0.053000662 0.019754197 -0.09978069 -0.06240226
-0.07152945 0.087124206 0.10129018 0.007947761 -0.13786228 -0.016458662 0.08834999 -0.041562583
-0.123336695 0.04165289 0.13583563 0.065095246 0.12809801 -0.05730289 0.08149995 0.011316363
-0.012009021 0.12192502 0.038067568 -0.07152041 0.0787104 -0.06773779 -0.0020268601 -0.13480103
-0.040396348 -0.028245086 0.0010010304 0.034131076 0.050761502 0.035713516 0.06781993 -0.09511274
00000000: c51f aa3d f2fb a83d ba89 d53b 9745 c93c
00000010: 1c7c 953c 1748 0ebe 42d2 cd3d 6ba1 98bd
00000020: 408a 9c3a be7e f7bc c133 b8bd 2034 1cbe
00000030: 5ce2 a23d 8b11 e83d fd56 dcbd 1888 12bd
00000040: 6d80 f8bc e389 25be df7f d3bd 599a af3c
00000050: efc4 4e3d cbfa 943d cf19 d43d 4942 7ebc
00000060: 822e 10bc a225 413d d11b 45bd c9c1 61bd
00000070: 5584 47bd 5a34 853d 3347 b2bc 855c a43b
00000080: eb90 d63d a76f cb3d acfd b13d 8b96 883c
00000090: 6ad4 98bd 0d29 e83d 3c02 7ebd f797 083e
000000a0: 5756 923c 7d4d a53d d02e aabd 757d 34bb
000000b0: 1b69 0f3c c2d0 90bd 0151 97bd 79c5 ac3d
000000c0: 2b99 cf3d 7a6e 6f3d 1ee9 bbbd 9131 003e
000000d0: 4b15 123d 3779 f5bc d704 40bd 8493 0abe
000000e0: 2263 5ebd 53f9 e63d fcc7 753c 911b 543d
000000f0: 7ebe c53b f6e8 e63c c0e9 dc3d 2283 503d
00000100: 66c9 e5bc 7494 133d f36e cdbd 9349 f8bd
00000110: 6326 d43d 6cab e3bd 0a83 b83d 18e4 da3d
00000120: 3515 243d 132b 8fbc 64e2 d23d a3b8 98bc
00000130: 9f67 e03d bdcb aa3d d9a9 be3d 524a 1ebe
00000140: f4a6 803d 3d33 7c3d 366a fe3c ef91 7a3d
00000150: 29ef d5bd 94a9 39bd 6450 1cbc f2b5 86bc
00000160: 97ec 903d 88af bf3d 469c fb3a a05d b8bd
00000170: 6a95 f83c 9cee 15bd 352f 0cbe e6f5 93bd
00000180: 31c2 c03b b2d8 b43b 02a6 6abd aef9 623d
00000190: 14d6 a5bd 7c97 423d ba96 0bbd ff72 06bd
000001a0: f854 903b 7b13 ae3d 47e6 ed3d 806a 72bd
000001b0: 5b84 5dbd a36c 21bd 4fca 90bd d748 f9bc
000001c0: 29e3 b8bd 41ef d23d 399f 253e 2b96 0bbe
000001d0: ac74 9ebd 9250 babb 3d35 c33d 31e5 203e
000001e0: 0359 0dbe 90cf d83d 61e3 903d faaf a53d
000001f0: d7ce 783c 25f3 7abd 5121 91bc 357f 033d
00000200: c603 4b3d 4a56 873d d2ff 01bd 581a f93c
00000210: d4f6 523d 5557 203e 8028 1ebe e957 babd
00000220: ca49 2e3e 33f8 bebd f413 06bc 90d0 083d
00000230: 169d 083e a4c5 50bc e12c 07be 3873 213c
00000240: 0090 99bd 1595 e73d 6862 ab3d dd45 c6bd
00000250: 4423 3fbd ed8d d2bd 42d1 e03d 2426 fabd
00000260: 5c00 5bbd ccba 073e 8602 77bb 9180 d3bd
00000270: c80e f43b 6e25 1b3d 3aff 23bd 82b9 c7bd
00000280: b2b2 cfbd 13a6 9c3d 162d eabc d4e7 edbd
00000290: 9ada 8c3c fcfd 613d bd9c ed3d eee6 ab3d
000002a0: ec12 c2bd 4db0 473c 8ea0 6a3c 0a43 013e
000002b0: 1fea 623c 54f6 f13d 8856 e4bd edd1 b5bd
000002c0: 886d 8dba caf0 06be 5ff9 053e 6590 fd3c
000002d0: f3b5 d43c ae71 99bd c48d b33d 727e 6ebd
000002e0: 8453 9fbb 1536 7fbd cf25 edbd 37b3 eb3d
000002f0: 7dcd 27bd 4939 bf3d 57f1 efbd 0ac6 0ebe
00000300: a278 cdbd a185 febd 8b5e a0bc afe6 853d
00000310: bcfe cbbd 9a47 88bd 13c7 f93d b415 fa3d
00000320: b3b9 47bd 83a9 07be cebc 703d a366 9e3d
00000330: eb22 c8bb 79e3 c6bd 3024 dfbd 327d 363c
00000340: 3473 ec3c e82c 92bc d7b8 ca3d f16d 053e
00000350: a319 e63d 79fc d6bd 67f0 b63d 97f1 9ebd
00000360: 1f7d fa3d 643d 21be 3ca0 7a3c 365f e33d
00000370: 3917 59bd 8ed3 a13c d259 ccbd 8399 7fbd
00000380: 087e 92bd 2d6e b23d 3a71 cf3d 5337 023c
00000390: c52b 0dbe 51d4 86bc d7f0 b43d 873d 2abd
000003a0: f397 fcbd 399c 2a3d 7f18 0b3e a850 853d
000003b0: 202c 033e 6fb6 6abd 72e9 a63d 4468 393c
000003c0: 7cc1 44bc d3b3 f93d bdec 1b3d 4b79 92bd
000003d0: eb32 a13d 1cba 8abd 12d5 04bb 4809 0abe
000003e0: a476 25bd 3d62 e7bc 0235 833a 07cd 0b3d
000003f0: 4beb 4f3d 5648 123d 2de5 8a3d 78ca c2bd

lstm.bias_ih_l1 f4 [200]
-0.00015492363 0.053285036 0.004237949 -0.006630522 -0.04463761 -0.09271187 -0.054778453 0.015836481
0.06078877 -0.09725152 0.114719905 -0.0008154523 0.12685785 0.09753914 -0.11250932 -0.039488874
0.007367821 -0.0959662 -0.08952855 -0.00086349755 -0.080784194 -0.020825699 -0.07359501 -0.06261215
-0.13010818 -0.046390086 0.18542476 0.050214604 0.13461672 -0.06611307 0.056762338 -0.11512653
0.040822886 0.11573698 -0.07473034 0.05251123 -0.018515287 -0.0958317 0.053085424 -0.083261736
-0.07751995 -0.10877712 0.09460243 -0.04733104 -0.060028385 -0.09383339 -0.027263615 0.05013117
0.0689218 0.07778638 0.08043172 -0.062858455 -0.0033823014 0.013253663 0.039029013 0.024539644
0.018889118 0.028468158 0.039796192 0.08107706 -0.0474863 -0.04701226 0.016226064 -0.08566684
-0.07727277 0.08213889 -0.10589127 0.05725618 0.036530934 -0.097768016 0.08623693 0.13642293
-0.07351207 0.09356172 0.08698485 -0.13602945 -0.13293342 -0.06628758 0.09872984 -0.009126807
0.09925018 -0.11355499 -0.05589033 -0.14885703 0.111031175 -0.13255458 0.08652456 -0.10260496
-0.019785576 -0.11861734 -0.023986092 -0.061347716 0.11670827 -0.02375288 0.115275055 -0.07411614
0.06953156 0.094233125 -0.06926994 -0.010754343 0.13707247 -0.031735312 0.062048677 0.09323373
-0.119302504 0.026729995 -0.019374091 -0.029991362 -0.09268082 -0.005489825 0.10162395 -0.065161936
0.0020208443 -0.10183977 0.09435933 0.028209003 0.103512116 0.008004713 -0.043136712 -0.013768473
-0.015736781 0.04199758 0.09116263 -0.14539716 0.11170865 0.048761413 0.010828912 -0.133141
-0.05194464 -0.11417295 -0.021792548 0.018933782 -0.11383686 0.056859165 0.12244107 0.062370684
0.040072553 0.095327385 -0.07240481 -0.12220815 0.096059635 -0.08477146 -0.1480321 -0.033289474
-0.12511672 0.06884755 0.04165218 0.14818847 -0.055572845 -0.11937268 -0.062824376 0.015100943
0.1329876 0.13784523 0.12353675 0.042149607 0.1314102 0.008656071 -0.040552445 0.11580601
0.037887525 0.13645655 0.13177396 0.10615864 -0.094859175 0.16170703 -0.0372864 0.06001281
-0.11647155 0.17965755 0.007411475 0.097978465 0.15188406 -0.01585088 0.03535525 -0.016234905
0.0864984 -0.10514526 0.031428084 0.0962905 -0.09383148 -0.046244033 -0.017299283 0.027354827
0.025270984 0.09112723 -0.0739702 -0.083451 0.06056754 -0.036177758 0.03827211 -0.049020875
0.1149834 -0.07320328 -0.085971996 -0.08029859 -0.024242377 0.018508464 -0.0075584664 0.1338176
00000000: ff72 22b9 6941 5a3d 7ede 8a3b da44 d9bb
00000010: edd5 36bd b9df bdbd 5f5f 60bd 82bb 813c
00000020: a5fd 783d ce2b c7bd 45f2 ea3d 14c4 55ba
00000030: 06e7 013e 9ac2 c73d 496b e6bd 16bf 21bd
00000040: c36d f13b ed89 c4bd bf5a b7bd 575c 62ba
00000050: 2f72 a5bd a89a aabc fbb8 96bd cd3a 80bd
00000060: 143b 05be 8803 3ebd fddf 3d3e d4ad 4d3d
00000070: f7d8 093e 4a66 87bd a07f 683d 75c7 ebbd
00000080: e635 273d 8307 ed3d 380c 99bd 0416 573d
00000090: 5fad 97bc 6943 c4bd 1a70 593d 2185 aabd
000000a0: c8c2 9ebd 8ac6 debd ebbe c13d 31de 41bd
000000b0: 53e0 75bd b82b c0bd f257 dfbc 5756 4d3d
000000c0: df26 8d3d 774e 9f3d 63b9 a43d efbb 80bd
000000d0: 9aa9 5dbb e425 593c e3dc 1f3d 5d07 c93c
000000e0: 5abd 9a3c 0e36 e93c 5501 233d bb0b a63d
000000f0: ff80 42bd ed8f 40bd 86ec 843c 1972 afbd
00000100: 3041 9ebd 6f38 a83d 86dd d8bd 7585 6a3d
00000110: 76a1 153d 993a c8bd fd9c b03d 74b2 0b3e
00000120: 7f8d 96bd 499d bf3d 1d25 b23d 4e4b 0bbe
00000130: b31f 08be c8c1 87bd df32 ca3d 9a88 15bc
00000140: ae43 cb3d 858f e8bd 42ed 64bd fa6d 18be
00000150: 5064 e33d 63bc 07be ca33 b13d 8d22 d2bd
00000160: 5c15 a2bc a6ed f2bd 7b7e c4bc be47 7bbd
00000170: bf04 ef3d 6695 c2bc 5415 ec3d 34ca 97bd
00000180: 9066 8e3d 4cfd c03d 66dd 8dbd fc32 30bc
00000190: ba5c 0c3e e3fc 01bd c126 7e3d 53f1 be3d
000001a0: df54 f4bd ddf8 da3c 6ab6 9ebc 72b0 f5bc
000001b0: 71cf bdbd fde3 b3bb 3820 d03d 9f73 85bd
000001c0: 2470 043b 5f91 d0bd 773f c13d 9116 e73c
000001d0: 29fe d33d 3326 033c 1fb0 30bd 2995 61bc
000001e0: 6cea 80bc a805 2c3d 79b3 ba3d fee2 14be
000001f0: 81c7 e43d 0cba 473d c06b 313c 1d56 08be
00000200: e7c3 54bd 82d3 e9bd 4986 b2bc 051b 9b3c
00000210: 4d23 e9bd 28e5 683d 62c2 fa3d 6778 7f3d
00000220: 1e23 243d 013b c33d f948 94bd 4448 fabd
00000230: eaba c43d a99c adbd ba95 17be 8b5a 08bd
00000240: 991e 00be f2ff 8c3d 7a9b 2a3d b8be 173e
00000250: 5aa0 63bd aa79 f4bd 11aa 80bd f269 773c
00000260: e72d 083e 4d27 0d3e d600 fd3d 11a5 2c3d
00000270: 6590 063e 31d2 0d3c 521a 26bd b42b ed3d
00000280: f32f 1b3d 44bb 0b3e c1ef 063e b369 d93d
00000290: 8745 c2bd 8796 253e a0b9 18bd fecf 753d
000002a0: a388 eebd 26f8 373e f5db f23b efa8 c83d
000002b0: 7f87 1b3e b4d9 81bc abd0 103d 10ff 84bc
000002c0: 1326 b13d 6656 d7bd bcba 003d f433 c53d
000002d0: b82a c0bd 626a 3dbd 3ab7 8dbc 3b17 e03c
000002e0: 1805 cf3c eaa0 ba3d b07d 97bd 5ce8 aabd
000002f0: ab15 783d 212f 14bd 37c3 1c3d 1dca 48bd
00000300: 6b7c eb3d 9aeb 95bd 1612 b0bd 9673 a4bd
00000310: f397 c6bc 109f 973c 03ad f7bb 7b07 093e

lstm.bias_hh_l1 f4 [200]
0.06293255 -0.102460556 -0.10508272 0.10399818 0.09289021 0.03593036 0.04308326 -0.14509802
-0.052908543 0.07163164 0.015379393 0.12562849 0.077372 0.01582209 0.117287494 -0.029729318
0.041159187 0.14970794 0.0025065718 0.19187829 0.12115871 0.059079755 0.0647856 0.050167102
0.03305564 0.10116311 0.113383755 0.09790859 -0.115698695 0.034023684 0.0034560384 -0.09368843
0.035557278 0.060053393 -0.04757748 -0.04562746 -0.0957742 0.03571718 0.0842517 -0.020106697
0.044870116 0.05703465 0.018492904 -0.05744389 -0.02861707 0.025435861 0.120092906 0.10579417
-0.02100571 0.09430445 -0.10462434 -0.07430512 -0.12551443 -0.078196354 0.0884416 -0.030342922
-0.026777096 0.003399126 -0.026575722 -0.06418309 0.03732611 0.07451508 0.028404651 -0.035627503
-0.08491957 -0.049310826 -0.00306459 0.07136126 0.053698428 0.12786575 0.07702784 -0.09290814
-0.07262493 -0.007067945 -0.046717312 0.10710222 -0.08358316 0.044428155 0.018307256 0.115191065
0.0020430777 -3.0293486e-05 0.027470639 -0.03612197 0.021071015 -0.14830917 0.029136913 0.04278906
-0.14437498 0.12129981 0.031339556 -0.012461381 -0.0125584155 0.10059113 0.07103797 0.030267036
0.11017282 0.026574474 -0.046953548 -0.06132806 0.027368715 -0.03290726 -0.080813766 -0.09314646
-0.06541454 -0.09819075 0.009275682 -0.04447246 0.0019093247 0.11266349 -0.08598262 0.06214145
-0.0746258 -0.06653129 0.13564637 -0.11785172 0.004081169 0.07590489 0.03627682 0.06441049
0.07626928 -0.1160516 -0.1138582 -0.05649762 0.100988455 -0.11109863 -0.10010251 0.057932872
-0.14304487 0.008656037 -0.081705585 0.04229109 -0.13083126 0.068087325 -0.07762788 0.038763765
0.105775654 -0.13970649 0.10680193 0.09207027 0.094017595 0.01702146 -0.048041727 -0.11967319
-0.008157238 -0.083073586 -0.08239432 0.015756734 -0.016585438 -0.030034365 -0.122629754 -0.08981243
0.044527285 -0.09356618 0.09162137 0.013506315 -0.08303307 0.0899337 -0.026979072 0.061145496
-0.08411928 -0.06741117 -0.12036372 -0.027664648 -0.011246213 -0.003573574 -0.08056777 0.13614373
-0.013133834 0.14583223 -0.068139285 0.062078618 0.14789051 -0.028981192 -0.036516584 -0.047624335
0.10118923 0.16270722 0.08817497 -0.124766506 -0.04579424 -0.08201607 0.052669004 -0.09967648
-0.12562744 0.01725569 -0.060599416 0.07091999 -0.081367314 0.113550544 -0.037332427 -0.09193341
0.14197485 0.11920421 0.02508775 -0.04400085 -0.06524135 -0.09825864 0.046896294 -0.107599854
00000000: c8e2 803d d7d6 d1bd 9c35 d7bd fffc d43d
00000010: 393d be3d b72b 133d 1378 303d 9394 14be
00000020: a1b6 58bd 9cb3 923d d9f9 7b3c c1a4 003e
00000030: 3675 9e3d 549d 813c 6d34 f03d e68a f3bc
00000040: 8996 283d 0a4d 193e 4c45 243b be7b 443e
00000050: 0f22 f83d 9dfd 713d 50ae 843d 057c 4d3d
00000060: 5a65 073d 9b2e cf3d be35 e83d 4d84 c83d
00000070: 70f3 ecbd 6b5c 0b3d b47e 623b b8df bfbd
00000080: 82a4 113d 8cfa 753d 9be0 42bd dce3 3abd
00000090: 4425 c4bd 2e4c 123d 288c ac3d cdb6 a4bc
000000a0: bac9 373d 2a9d 693d 6e7e 973c 494a 6bbd
000000b0: 586e eabc de5e d03c 45f3 f53d 9daa d83d
000000c0: 2b14 acbc b122 c13d 4945 d6bd 482d 98bd
000000d0: db86 00be 6925 a0bd df20 b53d b891 f8bc
000000e0: a45b dbbc dfc3 5e3b 54b5 d9bc 6d72 83bd
000000f0: 43e3 183d 5d9b 983d dfb0 e83c 25ee 11bd
00000100: 50ea adbd 26fa 49bd 4ad7 48bb da25 923d
00000110: e2f2 5b3d 3def 023e c6c0 9d3d 9f46 bebd
00000120: 61bc 94bd 389a e7bb a75a 3fbd 6958 db3d
00000130: a62d abbd 4cfa 353d 19f9 953c 4be9 eb3d
00000140: 28e5 053b c41e feb7 1b0a e13c a1f4 13bd
00000150: 1f9d ac3c 5cde 17be 89b0 ee3c 9543 2f3d
00000160: 09d7 13be 096c f83d e85d 003d d22a 4cbc
00000170: d0c1 4dbc b902 ce3d 5b7c 913d 93f2 f73c
00000180: 4aa2 e13d b6b2 d93c 5d52 40bd 2233 7bbd
00000190: 5b34 e03c c3c9 06bd b081 a5bd 92c3 bebd
000001a0: 0ff8 85bd 3b18 c9bd 08f9 173c c128 36bd
000001b0: 4e42 fa3a 1ebc e63d a817 b0bd 0888 7e3d
000001c0: 69d5 98bd 8f41 88bd e2e6 0a3e 3e5c f1bd
000001d0: 54bb 853b 0674 9b3d 0197 143d a6e9 833d
000001e0: 1133 9c3d 76ac edbd 7d2e e9bd 0c6a 67bd
000001f0: 09d3 ce3d ae87 e3bd 8b02 cdbd 054b 6d3d
00000200: 5b7a 12be 0dd2 0d3c 4255 a7bd 6c39 2d3d
00000210: a1f8 05be 5e71 8b3d 5efb 9ebd c1c6 1e3d
00000220: e8a0 d83d 380f 0fbe f8ba da3d 568f bc3d
00000230: 4c8c c03d 9770 8b3c 67c7 44bd 3817 f5bd
00000240: f0a5 05bc 7c22 aabd 5abe a8bd 4414 813c
00000250: 2fde 87bc a10a f6bc 4f25 fbbd 94ef b7bd
00000260: 3e62 363d a09f bfbd fca3 bb3d 9749 5d3c
00000270: 3e0d aabd 292f b83d 3703 ddbc b373 7a3d
00000280: bb46 acbd de0e 8abd 4181 f6bd f9a0 e2bc
00000290: 0942 38bc 9f32 6abb b700 a5bd 4369 0b3e
000002a0: 4b2f 57bc 0b55 153e 9c8c 8bbd 2646 7e3d
000002b0: 9c70 173e f769 edbc 6a92 15bd bc11 43bd
000002c0: 4d3c cf3d b99c 263e 1495 b43d 9585 ffbd
000002d0: be92 3bbd 0bf8 a7bd 74bb 573d 2f23 ccbd
000002e0: 7ba4 00be ce5b 8d3c 1837 78bd 803e 913d
000002f0: e8a3 a6bd 308d e83d e3e9 18bd 9547 bcbd
00000300: db61 113e 5621 f43d d384 cd3c 3c3a 34bd
00000310: 429d 85bd d33b c9bd 5416 403d 505d dcbd

fc.weight f4 [1, 50]
0.11011346 -0.10841265 0.15303963 0.06306125 -0.08465582 -0.14225434 -0.01487678 0.080425225
0.115098156 -0.10632612 -0.09737473 0.09061163 -0.14971413 0.055487618 0.032880057 -0.11052393
0.03989537 0.04996422 -0.084212326 0.115399845 -0.13636921 -0.10411981 -0.073094845 -0.022674983
0.060009137 0.047798987 0.086268574 -0.035080053 -0.055947497 -0.15116581 0.08536795 -0.037593972
-0.10876699 -0.07517779 -0.110246636 0.0034432837 -0.057268433 -0.08725331 -0.1421693 -0.09835314
-0.043264974 0.13349986 -0.042204976 -0.1338745 0.053708035 -0.13923873 0.04278501 0.02452786
-0.111739844 -0.07533548
00000000: 2a83 e13d 7407 debd 6cb6 1c3e 4226 813d
00000010: 0860 adbd 1fab 11be bdbd 73bc fbb5 a43d
00000020: 95b8 eb3d 82c1 d9bd 676c c7bd 9792 b93d
00000030: a94e 19be fc46 633d 3dad 063d 5f5a e2bd
00000040: 5469 233d 48a7 4c3d 8377 acbd c156 ec3d
00000050: 5fa4 0bbe c43c d5bd c0b2 95bd e3c0 b9bc
00000060: 24cc 753d dfc8 433d 94ad b03d 1ab0 0fbd
00000070: 3429 65bd 36cb 1abe 64d5 ae3d 23fc 19bd
00000080: 3ac1 debd d0f6 99bd fdc8 e1bd b7a8 613b
00000090: 4e92 6abd ddb1 b2bd d494 11be 5f6d c9bd
000000a0: 9d36 31bd 30b4 083e 20df 2cbd 6616 09be
000000b0: f5fc 5b3d 9994 0ebe 563f 2f3d a7ee c83c
000000c0: dcd7 e4bd 7d49 9abd
